deep_learning/output/softmax_mnist.pt (torch, 183487 bytes, 10 tensors)

weight f4 [6, 1, 5, 5]
0.13773379 0.25833482 0.20884813 0.2759178 0.06769851 0.4414068 0.47694558 0.7244443
0.65286374 0.39511442 0.45618665 0.577883 0.67159545 0.30641583 0.15019602 0.26004446
0.5555306 0.10475888 0.18667284 -0.47270256 0.0055531487 -0.072611906 -0.24338207 -0.562101
-0.55242294 -0.10226463 -0.098262824 0.051424485 -0.075395755 -0.40375003 -0.28238755 -0.6475625
-0.4827031 -0.670533 -0.42751563 -0.2802473 -0.6158126 -0.6905176 -0.9343665 -0.6419796
-0.03224186 -0.3335107 -0.50560415 -0.7145029 -0.1297744 -0.019116296 -0.08407779 -0.43385145
-0.23262951 0.0321878 -0.5821165 -0.23531361 -0.004578438 0.15219736 0.35330707 -0.36567146
-0.13978922 0.53692394 0.7416625 0.54132897 -0.2598236 0.12658809 0.6960785 0.8998503
0.5022522 -0.26113576 0.36143383 0.6777856 0.49158734 0.46253356 -0.13780801 0.22898963
0.38634285 0.16173975 -0.24420393 0.0053199204 -0.17254317 -0.024778144 0.004993795 -0.26890257
-0.29358238 -0.41113174 -0.697424 -0.77326655 -0.76712245 -0.3642217 -0.63845766 -0.71932054
-0.58107 -0.7584957 -0.19077836 -0.28969067 -0.3188447 -0.38850865 -0.3069831 0.057410587
0.15176697 -0.09047936 -0.06440055 0.16770996 -0.3753462 -0.5692745 -0.45376584 -0.363628
0.3167389 -0.6714237 -0.7791788 -0.6730359 -0.14059196 0.19305517 -0.5968593 -0.6758952
-0.54403424 -0.03131123 0.36840668 -0.5170054 -0.20395383 -0.19302931 0.35991168 0.47337794
0.01930645 -0.038327746 0.15824743 0.5914288 0.7708757 -0.2502713 -0.26380846 -0.27199596
-0.49992374 -0.24289306 -0.35981697 -0.72273546 -0.6721618 -0.49262196 -0.24366638 -0.4606439
-0.802782 -0.7537025 -0.60792583 0.04061066 -0.13846403 -0.674801 -0.3243487 -0.2224675
0.26392028 -0.30550718 -0.20130825 -0.10607291 0.0322672 0.2682524
00000000: 160a 0d3e 7644 843e 49dc 553e 1945 8d3e
00000010: 84a5 8a3d 1200 e23e 3632 f43e 2f75 393f
00000020: 1422 273f 704c ca3e 4c91 e93e 24f0 133f
00000030: aeed 2b3f 89e2 9c3e fccc 193e 8c24 853e
00000040: 4137 0e3f d38b d63d 2a27 3f3e 1206 f2be
00000050: 30f7 b53b 8db5 94bd 2639 79be dae5 0fbf
00000060: 976b 0dbf 1e70 d1bd 053e c9bd 7ba2 523d
00000070: 1769 9abd 53b8 cebe 1a95 90be a8c6 25bf
00000080: dc24 f7be 0da8 2bbf 54e3 dabe 937c 8fbe
00000090: e5a5 1dbf c3c5 30bf a532 6fbf c658 24bf
000000a0: 0a10 04bd eac1 aabe 466f 01bf a9e9 36bf
000000b0: 95e3 04be c799 9cbc fa30 acbd c721 debe
000000c0: 6e36 6ebe 5bd7 033d 9605 15bf 0df6 70be
000000d0: b906 96bb a0d9 1b3e aae4 b43e 4a39 bbbe
000000e0: e824 0fbe d973 093f 98dd 3d3f 8994 0a3f
000000f0: 9907 85be 4fa0 013e 3332 323f 975c 663f
00000100: 9a93 003f 96b3 85be db0d b93e 5b83 2d3f
00000110: 56b1 fb3e 33d1 ec3e 8b1d 0dbe 427c 6a3e
00000120: bbce c53e 1b9f 253e 9810 7abe ba52 ae3b
00000130: 28af 30be 89fb cabc fda2 a33b 99ad 89be
00000140: 6e50 96be dc7f d2be 618a 32bf ccf4 45bf
00000150: 2362 44bf 447b babe f671 23bf 6425 38bf
00000160: 01c1 14bf c62c 42bf 675b 43be 5652 94be
00000170: 9d3f a3be 9bea c6be e42c 9dbe 5d27 6b3d
00000180: cd68 1b3e 3e4d b9bd 70e4 83bd 29bc 2b3e
00000190: 612d c0be f9bb 11bf ff53 e8be 732d babe
000001a0: 9a2b a23e 6ce2 2bbf 4378 47bf 154c 2cbf
000001b0: 57f7 0fbe 41b0 453e c5cb 18bf 7807 2dbf
000001c0: d445 0bbf 3440 00bd cd9f bc3e 775a 04bf
000001d0: 46d9 50be 7aa9 45be 5846 b83e 985e f23e
000001e0: 8f28 9e3c 8efd 1cbd 9d0b 223e e167 173f
000001f0: 1c58 453f 8f23 80be e711 87be 0e43 8bbe
00000200: 01f6 ffbe f5b8 78be ee39 b8be 3105 39bf
00000210: cc12 2cbf f238 fcbe ae83 79be 84d9 ebbe
00000220: 1f83 4dbf a6f2 40bf 07a1 1bbf 5d57 263d
00000230: 84c9 0dbe c2bf 2cbf 0811 a6be 85ce 63be
00000240: 8f20 873e 706b 9cbe c023 4ebe c13c d9bd
00000250: 9d2a 043d 6158 893e

bias f4 [6]
-0.37433222 0.20227721 -0.5846497 0.1921697 0.06527003 0.19496968
00000000: 79a8 bfbe c221 4f3e 9aab 15bf 22c8 443e
00000010: 4bac 853d 22a6 473e

weight f4 [16, 6, 5, 5]
-0.09896839 0.0029658945 -0.016383534 -0.21668595 -0.2329221 0.057303816 -0.048102573 -0.15730298
-0.31872436 -0.2941325 -0.02988509 0.06393452 -0.057835992 -0.32463565 -0.3992297 0.13407749
0.05707159 -0.097152665 -0.23735899 -0.36230534 0.12783235 0.09195235 -0.1313221 -0.23175734
-0.23591106 -0.12333528 0.009900053 0.09834405 0.25515935 0.16199465 -0.082987174 -0.055619076
0.14105177 0.22904055 0.16271392 -0.14902613 -0.036642764 0.20094684 0.25893718 0.22282253
-0.32415354 -0.034436364 0.2132813 0.33716166 0.18356949 -0.17011914 -0.10774938 0.18341152
0.23109579 0.105782464 0.10362513 -0.0137257585 -0.28328168 -0.39132673 -0.28143662 0.062140208
-0.08987666 -0.3757742 -0.36438537 -0.32751468 0.08977128 -0.020767333 -0.38390505 -0.435248
-0.2762444 0.16694662 -0.045819275 -0.3057767 -0.3891074 -0.122496575 0.036358528 -0.017484924
-0.22087869 -0.32059702 0.016467286 -0.029674243 -0.059075564 0.030282699 0.1640652 0.10175114
-0.10294004 -0.024737136 0.17227022 0.23344767 0.22411886 -0.17727298 0.02290965 0.12101006
0.23633358 0.22805852 -0.30147326 -0.02796156 0.121108145 0.22764193 0.16544734 -0.23802213
0.03139925 0.14693183 0.19483532 0.14388458 0.11728932 -0.19288658 -0.1497979 -0.004203527
0.06335927 0.08820027 -0.1330598 -0.065568775 0.10422428 0.10382558 0.024508657 -0.30695862
-0.004475019 0.07476123 0.26201504 -0.121115975 -0.26987913 -0.052577686 0.1819339 0.2649575
-0.1184338 -0.28520277 -0.09400989 0.12945077 0.19207732 0.010969458 -0.14028744 0.05338979
0.1870798 0.10905868 -0.14369155 -0.19221587 0.17120922 0.28705972 0.29377663 -0.22602607
-0.19430774 0.070458464 0.20282094 0.17431125 -0.24533215 -0.22859229 0.0777943 0.21992484
0.27342835 -0.15882152 -0.18144633 0.15863633 0.225838 0.21137321 0.07753179 0.1549698
-0.017051704 -0.056842428 -0.15852511 0.02065595 0.008671981 -0.08393482 -0.35047188 -0.22516249
0.0051647 0.05874145 -0.058968823 -0.11653024 -0.11917204 0.055915833 0.1629281 -0.017291814
0.079181634 0.056427248 0.16011201 0.15720187 0.2388653 0.13192396 0.0502861 -0.08252539
-0.0033613273 0.12920374 0.27689302 0.24064127 -0.0086070895 0.089504115 0.3250909 0.26294693
0.30751467 -0.1481057 -0.036708813 0.17114122 0.07946017 0.017681533 -0.2637237 -0.28968826
-0.2735003 -0.2283585 -0.12251723 -0.20698844 -0.28863955 -0.4088579 -0.2538568 -0.09938143
0.14379747 -0.048929498 -0.18459143 -0.31273827 -0.141556 0.087271236 -0.07542627 -0.22428219
-0.24200518 -0.089103445 0.03407402 -0.03974741 -0.021448312 -0.16722588 -0.04591751 0.18841067
0.16282491 0.10446703 0.038362756 0.046882592 0.12111048 0.25015235 0.18988045 0.16116475
0.027995627 -0.15993333 -0.0632328 0.15159473 0.25982064 0.13118204 -0.07241757 0.2131366
0.3082462 0.24290933 0.21596938 -0.18335001 0.026542846 0.21536268 0.19763303 0.0032899827
-0.31242204 -0.18766083 -0.19087227 -0.07540003 -0.20337538 -0.14196965 -0.31249842 -0.40300405
-0.21663786 0.017152373 0.02480056 -0.21048076 -0.06925597 0.1794719 0.15882777 0.04366516
00000000: f0af cabd 745f 423b c336 86bc ece2 5dbe
00000010: 2283 6ebe 68b7 6a3d 3407 45bd 0814 21be
00000020: d72f a3be 8998 96be 94d1 f4bc 1af0 823d
00000030: 6fe5 6cbd a536 a6be d667 ccbe 9c4b 093e
00000040: e6c3 693d faf7 c6bd 3c0e 73be 1680 b9be
00000050: 7ce6 023e 8451 bc3d 4d79 06be cc51 6dbe
00000060: ab92 71be 3597 fcbd d533 223c 9b68 c93d
00000070: 3fa4 823e ede1 253e 2ef5 a9bd d4d0 63bd
00000080: e06f 103e 9b89 6a3e 7a9e 263e 4e9a 18be
00000090: b916 16bd 02c5 4d3e 6a93 843e 972b 643e
000000a0: 74f7 a5be 250d 0dbd 6a66 5a3e 74a0 ac3e
000000b0: a4f9 3b3e b633 2ebe b5ab dcbd 3bd0 3b3e
000000c0: 60a4 6c3e 7aa4 d83d 6a39 d43d 01e2 60bc
000000d0: 4c0a 91be fa5b c8be 7618 90be bb86 7e3d
000000e0: 4111 b8bd 7a65 c0be b890 babe 01b0 a7be
000000f0: 01da b73d 4120 aabc 348f c4be d3d8 debe
00000100: e86f 8dbe 0ef4 2a3e feac 3bbd c38e 9cbe
00000110: 1639 c7be 7cdf fabd aeec 143d 8b3c 8fbc
00000120: 062e 62be 4b25 a4be 67e6 863c 6617 f3bc
00000130: 38f9 71bd 6c13 f83c b500 283e e762 d03d
00000140: 3ad2 d2bd 89a5 cabc 9b67 303e e80c 6f3e
00000150: 6a7f 653e 0c87 35be 05ad bb3c 1fd4 f73d
00000160: 6e01 723e 2c88 693e b45a 9abe a40f e5bc
00000170: 8c07 f83d f71a 693e 076b 293e 13bc 73be
00000180: 809c 003d 4c75 163e e982 473e 7b56 133e
00000190: 6235 f03d 0f84 45be 9f64 19be bdbd 89bb
000001a0: 81c2 813d 58a2 b43d d440 08be ec48 86bd
000001b0: 8a73 d53d 81a2 d43d 61c6 c83c ae29 9dbe
000001c0: 2ea3 92bb 6a1c 993d d626 863e a70b f8bd
000001d0: 992d 8abe b35b 57bd e14c 3a3e 82a8 873e
000001e0: 6c8d f2bd 1906 92be 4288 c0bd be8e 043e
000001f0: ebaf 443e 3eb9 333c 83a7 0fbe 41af 5a3d
00000200: d991 3f3e 285a df3d e123 13be 3dd4 44be
00000210: 7851 2f3e 7ef9 923e e469 963e 6173 67be
00000220: 9cf8 46be 874c 903d 4bb0 4f3e a67e 323e
00000230: 5a38 7bbe 1914 6abe 9e52 9f3d fa33 613e
00000240: cdfe 8b3e 1ca2 22be 11cd 39be 9071 223e
00000250: 1442 673e 3872 583e fdc8 9e3d 67b0 1e3e
00000260: 04b0 8bbc 9bd3 68bd 6854 22be ab36 a93c
00000270: ed14 0e3c 05e6 abbd 0d71 b3be ff90 66be
00000280: a53c a93b e09a 703d 4b89 71bd 68a7 eebd
00000290: 7810 f4bd 0008 653d a0d6 263e 90a7 8dbc
000002a0: fb29 a23d 4220 673d 67f4 233e 87f9 203e
000002b0: 1b99 743e 1317 073e ccf8 4d3d 1203 a9bd
000002c0: b749 5cbb fc4d 043e ecc4 8d3e aa6a 763e
000002d0: c004 0dbc ef4d b73d 5072 a63e fba0 863e
000002e0: 9072 9d3e 05a9 17be fb5b 16bd a53f 2f3e
000002f0: 03bc a23d ddd8 903c cb06 87be 0552 94be
00000300: 3b08 8cbe d0d6 69be 50ea fabd c7f4 53be
00000310: 90c8 93be d355 d1be 85f9 81be 7e88 cbbd
00000320: a53f 133e 4c6a 48bd 8905 3dbe 3b1f a0be
00000330: 0ef4 10be 43bb b23d 1779 9abd 3baa 65be
00000340: 35d0 77be de7b b6bd 3391 0b3d 2ece 22bd
00000350: 5fb4 afbc 433d 2bbe 0014 3cbd baee 403e
00000360: 93bb 263e cff2 d53d 4422 1d3d f607 403d
00000370: c508 f83d f813 803e 0570 423e 5f08 253e
00000380: 1657 e53c 90c5 23be 3380 81bd a63b 1b3e
00000390: 3607 853e 9654 063e aa4f 94bd 7b40 5a3e
000003a0: 72d2 9d3e 39bd 783e 1427 5d3e 1bc0 3bbe
000003b0: 6270 d93c 0988 5c3e 5060 4a3e c09c 573b
000003c0: c8f5 9fbe 292a 40be 0574 43be 556b 9abd
000003d0: a341 50be 7e60 11be cbff 9fbe 8c56 cebe
000003e0: 51d6 5dbe 2283 8c3c 8b2a cb3c 4588 57be
000003f0: 13d6 8dbd 7bc7 373e bfa3 223e 3dda 323d

bias f4 [16]
-0.018824687 0.04295351 0.031222854 -0.097855255 0.018922826 0.07094833 0.017572287 -0.05709033
0.021249855 -0.10111989 -0.0571683 -0.034862425 -0.05413253 -0.017032744 -0.0019063709 0.0026541203
00000000: 3b36 9abc 05f0 2f3d 12c7 ff3c 5668 c8bd
00000010: 0b04 9b3c 5c4d 913d c2f3 8f3c 8dd7 69bd
00000020: 2d14 ae3c f217 cfbd 4f29 6abd e7cb 0ebd
00000030: 12ba 5dbd 4188 8bbc 31df f9ba c0f0 2d3b

weight f4 [120, 256]
0.14016609 0.28621534 0.045685224 0.019401956 0.015221885 0.16848801 0.15191644 0.09883468
0.07438637 -0.20825778 0.202626 0.03652867 0.26860002 -0.008006502 0.12344183 0.028272718
-0.01916929 0.016132064 -0.047015328 -0.13654394 -0.045734003 -0.048490375 0.05940138 0.026481582
-0.13315625 -0.3492157 -0.117420875 -0.077423304 0.069786206 -0.13204373 0.07421912 -0.040306285
-0.42743775 -0.17860577 -0.18670975 -0.30127212 -0.0113893645 0.05581207 0.01813277 -0.008916969
-0.06415433 0.018197797 -0.021519909 0.00078919466 -0.2914074 -0.16436252 0.14192292 0.0055446723
-0.4749372 -0.48483145 -0.2815039 0.047224667 -0.5177631 -0.34969237 -0.2270868 -0.23516424
0.03695314 -0.052491307 -0.07851671 -0.049102847 -0.12145579 -0.104418 0.028297303 -0.016640935
-0.11145531 -0.069554284 -0.01678086 -0.12735319 0.09160123 0.04622832 0.11407856 0.15574193
-0.16727383 -0.15039094 -0.055331606 -0.029980456 -0.2427345 -0.21019946 -0.2579886 -0.18251076
-0.30497995 -0.46356645 -0.5058367 -0.3093615 -0.08915247 -0.1635716 -0.16246557 -0.30750787
0.18802291 0.056073543 0.071750514 0.14821501 -0.10773868 0.045869183 0.057727925 -0.045843616
-0.32019824 -0.1552465 -0.1282135 -0.19030128 0.017081153 0.053495802 0.0493246 -0.057370167
-0.010875479 0.1136897 0.16371337 -0.009377451 -0.19032532 -0.035517868 0.14051747 -0.052960843
-0.03182011 0.27146903 0.32060122 0.19787848 0.067130506 0.13107005 0.06842537 0.0065589747
0.07003831 0.14127854 0.20455681 -0.045991596 -0.021336695 0.21369681 0.16326986 -0.057967305
0.05550428 0.13938504 0.20686018 0.015227277 -0.0058699916 -0.06347602 0.0679747 0.033352643
-0.025508264 -0.15733384 -0.10302755 -0.124059096 0.10939083 -0.21288086 0.11114128 0.029253585
-0.32017833 -0.084932156 -0.09765928 -0.2687479 0.111143894 0.04076436 -0.015919067 -0.04829581
0.032510772 0.13411096 0.10353131 0.05605068 -0.25364906 -0.05125663 0.008176576 -0.06580153
-0.20919356 -0.4285248 -0.2867952 0.009140429 -0.24291053 -0.21447913 -0.21446027 -0.2634859
0.01472814 -0.0143409455 0.0039198734 0.07609489 -0.031190086 0.14361416 0.13475733 -0.09760933
0.09419127 0.18739145 0.09354997 0.12885389 0.21911168 0.16588241 0.15458564 0.14851232
0.048763562 0.11077989 0.09009874 -0.0015877344 -0.22393315 0.11501466 0.2876868 -0.053060263
-0.19592108 -0.14652698 -0.19806875 -0.24180813 0.05514389 0.08340789 -0.025647113 -0.073681675
-0.038852 0.118873715 0.05445917 -0.019263508 -0.19500338 -0.029958703 -0.01869403 -0.08101374
0.07793901 0.22936727 0.1539199 0.09140603 0.06751538 0.051189296 0.16053855 0.086307034
0.004704138 -0.22896233 -0.0208155 0.053066142 0.15355879 -0.21157286 0.17746288 0.13946456
-0.34609064 -0.14403705 -0.2586368 -0.34784904 -0.022260277 0.087276444 0.018366985 -0.016644442
-0.058755703 0.0019706888 0.031412635 0.050421745 -0.27795327 0.016272556 0.09979173 0.018802641
0.03208103 0.24603578 0.27138484 0.08886221 0.11744303 0.16329566 0.21436355 -0.0029367355
0.09668493 0.15869366 0.16895278 -0.07634279 0.0053027426 0.18691711 -0.055398103 -0.2778446
00000000: b387 0f3e d18a 923e 6e20 3b3d daf0 9e3c
00000010: 3765 793c 1f88 2c3e fc8f 1b3e d669 ca3d
00000020: e257 983d 8741 55be 317d 4f3e 169f 153d
00000030: f185 893e b42d 03bc 12cf fc3d 309c e73c
00000040: ea08 9dbc 6427 843c 2593 40bd 2dd2 0bbe
00000050: 9453 3bbd d89d 46bd dd4e 733d e7ef d83c
00000060: 1d5a 08be 66cc b2be 5b7a f0bd 1c90 9ebd
00000070: 12ec 8e3d 7936 07be 3200 983d 3418 25bd
00000080: 1fd9 dabe 6ee4 36be d730 3fbe 5740 9abe
00000090: 759a 3abc 329b 643d 2d8b 943c 7b18 12bc
000000a0: 5863 83bd 8c13 953c 854a b0bc f5e1 4e3a
000000b0: 5a33 95be a64e 28be 3e54 113e 15b0 b53b
000000c0: f82a f3be d43b f8be 4721 90be a76e 413d
000000d0: 1f8c 04bf e10a b3be 7189 68be e5ce 70be
000000e0: 2d5c 173d 2001 57bd 5ecd a0bd 1120 49bd
000000f0: d0bd f8bd 1bd9 d5bd bfcf e73c 9252 88bc
00000100: ae42 e4bd 7a72 8ebd 0478 89bc e068 02be
00000110: 6d99 bb3d e859 3d3d 05a2 e93d d07a 1f3e
00000120: d549 2bbe 1500 1abe 65a3 62bd 9399 f5bc
00000130: 658f 78be 873e 57be 1517 84be 1ae4 3abe
00000140: 5526 9cbe 9558 edbe 847e 01bf a164 9ebe
00000150: 9295 b6bd 507f 27be 605d 26be ac71 9dbe
00000160: 1489 403e 5fad 653d eff1 923d adc5 173e
00000170: 19a6 dcbd 53e1 3b3d 1e74 6c3d 84c6 3bbd
00000180: 06f1 a3be f0f8 1ebe 664a 03be 57de 42be
00000190: c6ed 8b3c 6a1e 5b3d 9708 4a3d fbfc 6abd
000001a0: 112f 32bc 25d6 e83d 7aa4 273e e1a3 19bc
000001b0: a4e4 42be 2f7b 11bd d0e3 0f3e 78ed 58bd
000001c0: ce55 02bd fdfd 8a3e d825 a43e a8a0 4a3e
000001d0: b87b 893d 3a37 063e 9a22 8c3d abec d63b
000001e0: 3f70 8f3d 52ab 103e 5777 513e af61 3cbd
000001f0: 4bca aebc 56d3 5a3e 3730 273e 206f 6dbd
00000200: 7558 633d f4ba 0e3e 28d3 533e d47b 793c
00000210: 0f59 c0bb b7ff 81bd 5236 8b3d c89c 083d
00000220: b5f6 d0bc 1f1c 21be 1c00 d3bd b212 febd
00000230: 4d08 e03d 71fd 59be 0a9e e33d 37a5 ef3c
00000240: 6aee a3be e9f0 adbd 9701 c8bd 5399 89be
00000250: 699f e33d 88f8 263d b468 82bc d4d1 45bd
00000260: 042a 053d 6254 093e 3908 d43d 6695 653d
00000270: 4ade 81be 79f2 51bd 0cf7 053c f4c2 86bd
00000280: d636 56be 9a67 dbbe d2d6 92be bdc1 153c
00000290: 8abd 78be 6ba0 5bbe 799b 5bbe a0e7 86be
000002a0: 4c4e 713c 49f6 6abc 4872 803b a3d7 9b3d
000002b0: 5a82 ffbc 970f 133e d3fd 093e 67e7 c7bd
000002c0: 5ae7 c03d 8be3 3f3e 2097 bf3d 46f2 033e
000002d0: d05e 603e 14dd 293e b34b 1e3e 9d13 183e
000002e0: 4dbc 473d 91e0 e23d b085 b83d 871b d0ba
000002f0: bb4e 65be ce8c eb3d af4b 933e b855 59bd
00000300: 899f 48be 2b0b 16be 89d2 4abe 8d9c 77be
00000310: 8fde 613d c1d1 aa3d e519 d2bc 6be6 96bd
00000320: 4623 1fbd 1074 f33d 9410 5f3d 81ce 9dbc
00000330: f7ae 47be f46b f5bc 3924 99bc 88ea a5bd
00000340: 7d9e 9f3d 41df 6a3e 2e9d 1d3e 1633 bb3d
00000350: 8145 8a3d deab 513d 3864 243e bec1 b03d
00000360: 2b25 9a3b 1a75 6abe 4485 aabc e25b 593d
00000370: 843e 1d3e 8ea6 58be d4b8 353e cccf 0e3e
00000380: cb32 b1be 737e 13be 0b6c 84be 4519 b2be
00000390: 2f5b b6bc febd b23d 5c76 963c ed59 88bc
000003a0: d2a9 70bd ac26 013b 89aa 003d 0887 4e3d
000003b0: e44f 8ebe 064e 853c 9b5f cc3d ff07 9a3c
000003c0: 6667 033d cef0 7b3e f4f2 8a3e 64fd b53d
000003d0: f985 f03d fa36 273e 1e82 5b3e 3f76 40bb
000003e0: c002 c63d 9780 223e f501 2d3e 9c59 9cbd
000003f0: a1c2 ad3b 3367 3f3e 1fe9 62bd a641 8ebe

bias f4 [120]
-0.04254502 -0.02659373 -0.07548817 -0.00041302395 0.050288733 -0.026639935 -0.010812965 -0.0713835
-0.09066403 0.03851702 0.012703001 0.004541611 -0.01912712 0.044409733 -0.0471735 -0.09849973
0.03317401 0.03387787 0.037955754 -0.038584676 -0.055577435 -0.07279925 0.080564365 0.031117588
0.037666004 -0.035077695 -0.07003531 -0.0258605 -0.046768777 -0.036726445 -0.004439954 -0.08023008
-0.028185168 0.044572305 0.063606806 0.014040787 -0.030175488 -0.07322848 -0.059749052 -0.04673718
-0.06711825 0.016960269 -0.050073333 0.0436962 0.0028842571 -0.026416097 0.04688543 -0.027419353
0.02385084 -0.024488324 -0.08653789 -0.05950606 -0.06428937 -0.049356423 0.045737177 0.019571457
0.06481357 0.07913853 0.0454596 -0.009560124 0.0069858925 -0.064979 -0.0661618 0.0055787633
0.058578916 0.0027973813 -0.009940142 0.009232044 0.044373326 0.0112062525 -0.018148996 0.007056996
-0.05923989 0.0016167382 -0.043658987 0.06238953 -0.0013910799 -0.08027226 0.025751073 0.04944155
-0.0464549 -0.07214853 0.031541575 0.014899329 0.050227467 -0.03908741 0.043676384 0.009239379
0.026047003 -0.06325748 0.023931522 0.03311791 -0.054707512 -0.025021024 0.04365577 -0.015719557
-0.082393005 0.042070065 -0.012563475 -0.038555782 -0.024895767 0.033962023 0.017103758 -0.019045873
-0.044072725 -0.11415793 -0.06403755 -0.06356605 0.034164798 0.008871294 0.022656946 -0.053971455
0.019750403 0.032504328 -0.007029236 0.05295007 0.061732817 -0.11683851 0.0035309284 -0.04151791
00000000: b043 2ebd 18db d9bc 8b99 9abd 238b d8b9
00000010: 8ffb 4d3d fe3b dabc dd28 31bc 8331 92bd
00000020: 10ae b9bd 06c4 1d3d 3f20 503c cbd1 943b
00000030: 7ab0 9cbc fbe6 353d 0039 41bd 3aba c9bd
00000040: 79e1 073d 85c3 0a3d 7e77 1b3d f70a 1ebd
00000050: 2aa5 63bd c617 95bd eefe a43d 50ea fe3c
00000060: ab47 1a3d a1ad 0fbd ac6e 8fbd 66d9 d3bc
00000070: 9e90 3fbd 786e 16bd 097d 91bb ab4f a4bd
00000080: 95e4 e6bc 7391 363d 4944 823d 540b 663c
00000090: 9632 f7bc d0f8 95bd 6cbb 74bd 7c6f 3fbd
000000a0: 4b75 89bd 43f0 8a3c b219 4dbd c9fa 323d
000000b0: ce05 3d3b 9266 d8bc f00a 403d 8d9e e0bc
000000c0: d662 c33c bd9b c8bc c73a b1bd a0bc 73bd
000000d0: 25aa 83bd f629 4abd e856 3b3d 5254 a03c
000000e0: fabc 843d 6213 a23d d833 3a3d 11a2 1cbc
000000f0: eae9 e43b b613 85bd d67f 87bd 0fce b63b
00000100: 72f0 6f3d 4554 373b fadb 22bc 0042 173c
00000110: cec0 353d 6e9a 373c 34ad 94bc 603e e73b
00000120: 87a5 72bd bbe8 d33a c4d3 32bd 2a8c 7f3d
00000130: e554 b6ba c865 a4bd eaf3 d23c 3983 4a3d
00000140: 7e47 3ebd 9cc2 93bd bd31 013d 511c 743c
00000150: 51bb 4d3d 1f1a 20bd 02e6 323d c460 173c
00000160: 8660 d53c 238d 81bd 0a0c c43c a5a6 073d
00000170: fc14 60bd e4f8 ccbc 65d0 323d 4dc6 80bc
00000180: aabd a8bd a951 2c3d 09d7 4dbc abec 1dbd
00000190: 35f2 cbbc c31b 0b3d 2e1d 8c3c 1706 9cbc
000001a0: 9a85 34bd a2cb e9bd 1e26 83bd eb2e 82bd
000001b0: 63f0 0b3d e758 113c 0f9b b93c 2c11 5dbd
000001c0: 99cb a13c 4223 053d 8155 e6bb 2ce2 583d
000001d0: 8ddb 7c3d 0749 efbd 2667 673b af0e 2abd

weight f4 [84, 120]
-0.31307915 -0.17504 0.039055284 0.17328821 -0.2847465 0.08836601 -0.19415416 0.0780373
-0.14227226 -0.3794516 -0.18691176 -0.17987548 -0.14970402 0.18169451 -0.120821506 0.0863754
0.1442748 -0.29751173 -0.028909115 0.11776693 -0.2574178 -0.19607961 -0.11791598 0.12358609
-0.11880761 0.009653974 -0.35661486 -0.3193486 -0.12748161 -0.22305706 -0.099685945 0.13348986
0.3789342 -0.29370743 -0.16488959 0.1711005 0.09127153 0.062104713 -0.38869822 0.1252938
-0.17370383 0.034189243 -0.32458544 0.12027032 0.29134405 -0.17266701 -0.26353768 0.32389024
0.24508469 -0.12228128 0.15124284 -0.15247557 0.11951789 0.107813515 -0.171194 0.011891822
0.062188577 0.12542757 0.13469462 -0.14800589 -0.0035511854 0.23627813 0.118650235 -0.1993398
0.0897863 -0.31222776 0.32997674 -0.23340878 -0.21760897 -0.01648129 0.020397836 -0.042189594
0.2385 0.32818896 0.07973073 -0.083094686 0.22999768 -0.105829 0.024114242 0.23598987
-0.03330593 -0.24924675 0.06227317 -0.059478916 -0.36061007 -0.14095557 0.009811124 -0.001485299
0.2808409 -0.3105807 0.34965718 -0.16272667 0.35639992 -0.2623884 -0.23102933 0.116151564
0.1770155 0.03781068 -0.15191408 0.12200047 0.032900672 -0.005486433 -0.25398117 -0.17371494
-0.15438606 -0.22093062 0.2746724 -0.09831261 -0.16226949 -0.18813837 -0.37399554 -0.27783474
0.06491197 -0.15947418 0.1122949 0.15959391 0.15983456 -0.16374625 0.21175763 -0.1681417
-0.20691922 -0.25292772 0.10683365 0.14506422 -0.44187108 -0.024680717 -0.17347495 0.04485129
-0.25947034 -0.19213153 -0.1878843 -0.12904057 -0.11719305 -0.1771915 -0.19337934 -0.074308254
0.40589467 0.26703292 -0.16398288 0.010276045 0.15735263 -0.03549276 0.00687367 0.03827894
-0.053049035 -0.091602445 0.047478806 -0.20983543 -0.23865609 -0.25153342 0.016645985 0.026730616
0.16076289 -0.033103526 -0.18090607 -0.000844017 -0.029337075 0.2281732 -0.30240825 0.08849088
-0.1445562 -0.019289149 0.033107243 0.099814035 0.17384347 -0.27520254 0.11086767 0.19666028
0.17753126 -0.19031854 -0.0076544043 -0.015466298 0.033642925 0.05937264 -0.24454008 0.080587976
0.14812659 -0.072469026 -0.011774424 0.15694457 0.14852384 0.23901385 -0.10450667 0.18525936
0.22437605 -0.3366231 -0.024099292 -0.017547067 -0.10756195 -0.097576626 -0.13537547 0.06448132
0.2689488 0.14137074 -0.04359851 0.15618885 0.2350292 -0.061311465 -0.1835773 0.14187542
-0.2629139 -0.15070798 0.27064463 -0.06109211 -0.094637 -0.28719318 -0.079625435 0.1455795
0.31277323 0.19471948 0.16395494 0.2758962 0.3701867 0.23243755 0.07451124 -0.09491312
-0.14949843 0.09676461 -0.0059728455 0.26965535 0.3660314 0.06897857 0.40274113 0.117890745
-0.19429758 -0.18834977 0.11101358 0.42104143 -0.22770108 0.2590423 -0.13988173 0.19014895
0.3769227 0.025369585 0.05600769 0.264588 0.0041446653 -0.052475438 -0.0038346804 -0.06350874
0.08929331 -0.17409402 -0.20167817 0.00954472 0.11079893 0.123477496 0.27907324 -0.11403716
0.2946963 0.11408166 -0.09742283 0.1239338 0.071978845 -0.0976187 0.028226659 0.15827829
00000000: e94b a0be b03d 33be 6ff8 1f3d 7772 313e
00000010: 4bca 91be 3df9 b43d 59d0 46be 05d2 9f3d
00000020: d2af 11be 7b47 c2be cc65 3fbe 4731 38be
00000030: 034c 19be 200e 3a3e 4471 f7bd 96e5 b03d
00000040: c6bc 133e 7553 98be cfd2 ecbc ca2f f13d
00000050: 44cc 83be 18c9 48be ef7d f1bd b41a fd3d
00000060: 6751 f3bd b42b 1e3c 3996 b6be a981 a3be
00000070: 8a8a 02be 1269 64be 2528 ccbd 91b1 083e
00000080: aa03 c23e d260 96be d1d8 28be f834 2f3e
00000090: 91ec ba3d 8361 7e3d 7403 c7be 054d 003e
000000a0: 6bdf 31be 050a 0c3d 1030 a6be 4950 f63d
000000b0: 0c2b 953e 9fcf 30be 69ee 86be f1d4 a53e
000000c0: 7bf7 7a3e 9c6e fabd 67df 1a3e 8e22 1cbe
000000d0: ccc5 f43d 55cd dc3d 7b4d 2fbe ebd5 423c
000000e0: 73b9 7e3d 1670 003e 63ed 093e db8e 17be
000000f0: 01bb 68bb e5f2 713e e5fe f23d bc1f 4cbe
00000100: e1e1 b73d 51dc 9fbe b6f2 a83e b602 6fbe
00000110: e3d4 5ebe c503 87bc 5d19 a73c ffce 2cbd
00000120: 5839 743e 6208 a83e dd49 a33d 8c2d aabd
00000130: 8384 6b3e e0bc d8bd 3b8b c53c 54a7 713e
00000140: cd6b 08bd 8a3a 7fbe 2712 7f3d 2aa0 73bd
00000150: e2a1 b8be a856 10be d6be 203c 5dae c2ba
00000160: 61ca 8f3e 6f04 9fbe 4406 b33e d2a1 26be
00000170: 0d7a b63e c657 86be f492 6cbe dfe0 ed3d
00000180: 8d43 353e 5fdf 1a3d 5d8f 1bbe 62db f93d
00000190: dbc2 063d 89c7 b3bb d209 82be 54e2 31be
000001a0: 6117 1ebe a33b 62be dca1 8c3e 1f58 c9bd
000001b0: f929 26be 58a7 40be 587c bfbe 5b40 8ebe
000001c0: 91f0 843d 334d 23be defa e53d 966c 233e
000001d0: acab 233e 19ad 27be fed6 583e 562d 2cbe
000001e0: a2e2 53be be7f 81be 9acb da3d b78b 143e
000001f0: ed3c e2be 372f cabc 6ba3 31be fcb5 373d
00000200: 4cd9 84be 21be 44be be64 40be 3623 04be
00000210: e902 f0bd b071 35be 3c05 46be ed2e 98bd
00000220: 6dd1 cf3e 8ab8 883e 21eb 27be db5c 283c
00000230: 0c21 213e db60 11bd 863c e13b 61ca 1c3d
00000240: f249 59bd 109a bbbd 2379 423d 19df 56be
00000250: 4362 74be fdc8 80be 295d 883c 2afa da3c
00000260: 079f 243e 9097 07bd 713f 39be 0641 5dba
00000270: 4e54 f0bc 3ca6 693e 41d5 9abe b53a b53d
00000280: 8a06 14be 4704 9ebc 769b 073d 4d6b cc3d
00000290: 0604 323e 59e7 8cbe 970e e33d 5061 493e
000002a0: c1ca 353e dde2 42be ccd1 fabb 5b66 7dbc
000002b0: 2acd 093d ba30 733d b768 7abe 4f0b a53d
000002c0: 7fae 173e a46a 94bd 84e9 40bc 14b6 203e
000002d0: a216 183e 0cc0 743e 9807 d6bd a1b4 3d3e
000002e0: d6c2 653e dd59 acbe e16b c5bc debe 8fbc
000002f0: 7149 dcbd 41d6 c7bd de9f 0abe c80e 843d
00000300: a8b3 893e 7ec3 103e 5a94 32bd f8ef 1f3e
00000310: 7fab 703e bb21 7bbd b0fb 3bbe ca47 113e
00000320: a79c 86be 3153 1abe ef91 8a3e b83b 7abd
00000330: 0bd1 c1bd fc0a 93be a912 a3bd cb12 153e
00000340: d023 a03e 8b64 473e cee3 273e 4442 8d3e
00000350: 1c89 bd3e 1c04 6e3e 5999 983d cf61 c2bd
00000360: 1e16 19be 862c c63d dcb7 c3bb 4410 8a3e
00000370: 7868 bb3e a344 8d3d 1634 ce3e b470 f13d
00000380: f2f5 46be c3de 40be 165b e33d be92 d73e
00000390: 792a 69be 31a1 843e 283d 0fbe 68b6 423e
000003a0: 03fc c03e e0d3 cf3c 5268 653d 1478 873e
000003b0: f9cf 873b 7cf0 56bd 434f 7bbb df10 82bd
000003c0: 69df b63d b445 32be b984 4ebe 7561 1c3c
000003d0: 8dea e23d c5e1 fc3d b0e2 8e3e 518c e9bd
000003e0: 6fe2 963e a5a3 e93d 9f85 c7bd 01d1 fd3d
000003f0: a569 933d 50ec c7bd 983b e73c b413 223e

bias f4 [84]
0.0057345736 0.066433825 0.018731851 -0.037447453 -0.10900533 0.08228175 -0.020179508 -0.06379959
0.046118725 0.05386374 0.08125687 0.026010009 -0.026636995 -0.03506071 0.0035231267 -0.02790176
-0.057849925 -0.10086701 -0.015583021 -0.04218361 0.105043195 0.09440994 -0.087943666 -0.06589901
0.074568205 -0.055072702 -0.093770795 -0.058416378 -0.033144094 -0.04764077 -0.09379703 -0.12479758
-0.07159099 0.06741711 0.044689186 0.06873742 -0.007331607 0.008659346 -0.013848652 -0.06386131
0.04512098 0.019974796 0.031031601 0.0045996425 -0.059692476 0.013150225 -0.020026524 -0.08809484
-0.022480814 -0.0067440188 -0.039638698 -0.076183595 -0.062812515 -0.029860446 0.024618223 -0.04130979
0.03720083 0.044519335 -0.009478648 0.09869092 -0.024950746 -0.0048063407 -0.01942821 -0.0057682875
0.041160863 0.07424308 -0.056389436 -0.02792329 0.087004624 -0.020633724 0.039886087 0.05658552
-0.050995 -0.0010736281 0.065313436 0.055989705 0.032697245 0.06697389 0.08279278 0.07656533
-0.11268759 0.05403352 -0.05331275 -0.054572955
00000000: 17e9 bb3b 750e 883d 8a73 993c 8062 19bd
00000010: 303e dfbd 5683 a83d 7f4f a5bc 5ca9 82bd
00000020: fde6 3c3d 3aa0 5c3d 006a a63d f112 d53c
00000030: d435 dabc d29b 0fbd 42e4 663b 3b92 e4bc
00000040: 0bf4 6cbd 5d93 cebd ed4f 7fbc b9c8 2cbd
00000050: e320 d73d 005a c13d cf1b b4bd 0ff6 86bd
00000060: 37b7 983d ea93 61bd e70a c0bd 0346 6fbd
00000070: 1ac2 07bd f822 43bd a818 c0bd e095 ffbd
00000080: 4c9e 92bd fb11 8a3d 020c 373d 34c6 8c3d
00000090: fa3d f0bb eedf 0d3c 75e5 62bc b8c9 82bd
000000a0: c7d0 383d 2fa2 a33c fc35 fe3c 99b8 963b
000000b0: 1980 74bd 0b74 573c aa0e a4bc 116b b4bd
000000c0: af29 b8bc eefc dcbb 305c 22bd 2506 9cbd
000000d0: d9a3 80bd e59d f4bc 28ac c93c 7434 29bd
000000e0: e65f 183d e859 363d 554c 1bbc 771e ca3d
000000f0: 8265 ccbc 827e 9dbb e927 9fbc e703 bdbb
00000100: 4b98 283d c20c 983d 9cf8 66bd 62bf e4bc
00000110: 7b2f b23d 0e08 a9bc 985f 233d 38c6 673d
00000120: 22e0 50bd fbb8 8cba 0dc3 853d 7655 653d
00000130: 8ced 053d 9b29 893d 438f a93d 49ce 9c3d
00000140: c0c8 e6bd 4152 5d3d 785e 5abd e487 5fbd

weight f4 [10, 84]
-0.29248136 0.07771817 0.24986105 -0.31020078 -0.27091318 0.18377416 -0.15181069 -0.103322044
-0.39412382 0.21923034 0.020737438 0.070752874 -0.3044213 0.22877683 0.10561669 -0.3481738
0.2390494 -0.2555945 0.18136045 -0.26491007 0.21961634 -0.21361169 0.23745942 0.18165588
0.28534728 -0.01973259 -0.29775554 -0.39408755 -0.06712196 0.42129818 -0.3554975 -0.17808484
0.08590703 -0.06571164 -0.22851527 0.123247236 -0.2520778 -0.4887702 0.34174562 0.12691005
0.17830825 0.12136979 -0.33395404 0.15226041 0.29472476 -0.2933397 0.044953916 0.027579738
0.09659153 -0.39758387 -0.27529883 -0.29912004 0.046287403 -0.32079327 -0.25326177 0.1200878
0.30285078 0.12739302 -0.22558619 0.3632454 -0.07427682 0.21066916 -0.4759085 0.16063309
0.13836901 0.057573736 0.27392048 -0.10896928 -0.35278153 0.15178327 0.1120256 -0.29606968
0.30482757 -0.20277524 0.14963372 0.20954005 0.21443589 0.036397684 0.28600925 -0.22276624
-0.41827342 0.1794155 0.14159451 -0.08154694 -0.20194116 0.19138205 -0.18812326 0.32333028
-0.3092578 -0.06280195 0.2366995 0.09091824 0.12337113 0.12689874 0.31790346 0.22902921
-0.31013465 -0.18904024 -0.11239502 0.22296712 -0.27564907 -0.21042302 0.04874873 0.32044184
-0.3982571 0.18535396 -0.20520824 -0.37027794 -0.25252104 -0.27254015 0.24941087 0.20129545
0.059668846 -0.11689365 0.22679059 0.1521458 -0.2548741 -0.17773168 -0.102510616 0.18708813
0.21232034 0.19180225 -0.13663934 -0.32520577 -0.27182424 0.20864622 0.23010048 -0.1382922
-0.1458158 -0.033556078 -0.024317147 -0.25574005 -0.36794615 0.16335705 0.10428202 0.280082
0.15105693 0.13250528 0.121660955 -0.34947962 -0.3308347 0.24524833 -0.12539543 -0.21158609
0.17224 -0.12046903 0.28208223 -0.19849966 -0.25583005 -0.3391137 -0.083421715 0.06898836
0.17072973 -0.29399297 0.23219259 -0.23854734 0.18083866 0.20556116 -0.28191102 0.28368276
-0.2483866 0.24368931 -0.056360375 0.29470977 0.26523226 -0.39674738 0.2326271 0.13813446
0.32695925 0.20813172 0.030531248 0.2918026 0.028016588 -0.2926581 -0.3228675 -0.24651235
-0.22338486 0.18356802 0.30579466 0.13714148 -0.07401483 -0.26080164 0.33383143 -0.19844845
-0.14222811 -0.056988053 0.14336327 0.21964796 0.26319113 0.07556547 -0.33440694 -0.23215759
-0.029935436 0.20406044 -0.08769258 -0.19589974 -0.042662233 0.29991114 -0.2558708 -0.06331026
-0.22008796 -0.063766025 -0.30108428 -0.31469306 -0.18730493 0.1378568 -0.11910593 -0.10811019
0.06691546 0.05288548 -0.013444229 -0.19252808 0.12860185 0.2019775 -0.043284226 -0.26624334
-0.2496926 -0.35122764 0.11092712 0.16066687 -0.32593942 0.056692593 0.26592308 0.25057286
0.29519063 -0.19514829 0.16515373 0.25354472 -0.20072787 -0.3010617 0.101886585 -0.20450988
0.23945275 -0.21065728 0.27955502 0.25660372 0.1656723 0.18117389 -0.02714711 -0.05333242
-0.24622 0.2323292 -0.0022098452 0.06770161 0.11148066 0.13336477 0.16627543 0.24395823
-0.20633411 0.05951877 -0.23045744 -0.21933681 0.23621534 0.16029717 0.038089294 -0.060177837
00000000: 1ec0 95be b42a 9f3d 93db 7f3e a3d2 9ebe
00000010: 22b5 8abe 4b2f 3c3e 4374 1bbe 829a d3bd
00000020: 99ca c9be eb7d 603e 8fe1 a93c e2e6 903d
00000030: 1cdd 9bbe 7944 6a3e 904d d83d d643 b2be
00000040: 5ec9 743e 48dd 82be 8eb6 393e 4ba2 87be
00000050: 1be3 603e 06bd 5abe 9028 733e 0004 3a3e
00000060: 0a19 923e 3ea6 a1bc 6a73 98be d8c5 c9be
00000070: 3d77 89bd 65b4 d73e c503 b6be df5b 36be
00000080: 06f0 af3d d393 86bd e8ff 69be 0c69 fc3d
00000090: 5710 81be 1640 fabe 48f9 ae3e b5f4 013e
000000a0: 7096 363e b990 f83d 06fc aabe 27ea 1b3e
000000b0: 2ae6 963e 9f30 96be 9921 383d e7ee e13c
000000c0: c8d1 c53d 1d90 cbbe f8f3 8cbe 4326 99be
000000d0: dc97 3d3d 043f a4be 87ab 81be 98f0 f53d
000000e0: 420f 9b3e 5173 023e 1100 67be 4dfb b93e
000000f0: 721e 98bd a8b9 573e 47aa f3be 007d 243e
00000100: 9bb0 0d3e 70d2 6b3d 4e3f 8c3e 492b dfbd
00000110: c89f b4be 136d 1b3e ae6d e53d 7296 97be
00000120: 5c12 9c3e 50a4 4fbe 9539 193e ab91 563e
00000130: 1595 5b3e bd15 153d ce6f 923e d51c 64be
00000140: ef27 d6be b2b8 373e 27fe 103e 1502 a7bd
00000150: aac9 4ebe a8f9 433e 62a3 40be 8c8b a53e
00000160: 0a57 9ebe 4f9e 80bd 5b61 723e 5833 ba3d
00000170: 01aa fc3d bef1 013e 3ec4 a23e a286 6a3e
00000180: f8c9 9ebe c493 41be 5c2f e6bd 7e51 643e
00000190: e021 8dbe 2279 57be c0ac 473d f410 a43e
000001a0: 5be8 cbbe 6ecd 3d3e 1c22 52be 1295 bdbe
000001b0: 704a 81be 628a 8bbe 9065 7f3e 6520 4e3e
000001c0: 5267 743d f065 efbd cb3b 683e 1ccc 1b3e
000001d0: dc7e 82be 4bff 35be 16f1 d1bd 0894 3f3e
000001e0: 816a 593e cf67 443e 2feb 0bbe 5f81 a6be
000001f0: 8c2c 8bbe 5ba7 553e 769f 6b3e 789c 0dbe
00000200: bd50 15be 1972 09bd c134 c7bc 5cf0 82be
00000210: 7063 bcbe 1247 273e d091 d53d e866 8f3e
00000220: abae 1a3e 77af 073e 6129 f93d feee b2be
00000230: 2a63 a9be 6122 7b3e a967 00be 06aa 58be
00000240: af5f 303e 78b8 f6bd 156d 903e 7f43 4bbe
00000250: 28fc 82be 50a0 adbe 01d9 aabd c549 8d3d
00000260: c6d3 2e3e 3f86 96be e5c3 6d3e c145 74be
00000270: c52d 393e a07e 523e a456 90be de3e 913e
00000280: 0f59 7ebe b189 793e 23da 66bd 33e4 963e
00000290: 86cc 873e 7922 cbbe cc35 6e3e 1f73 0d3e
000002a0: 3467 a73e 7b20 553e ab1c fa3c 2667 953e
000002b0: 0b83 e53c 48d7 95be e44e a5be bc6d 7cbe
000002c0: 00bf 64be 41f9 3b3e 1e91 9c3e d16e 0c3e
000002d0: 1695 97bd cb87 85be f4eb aa3e 1236 4bbe
000002e0: 3fa4 11be 4e6c 69bd d2cd 123e 65eb 603e
000002f0: fdc0 863e 12c2 9a3d 6337 abbe b8ba 6dbe
00000300: 293b f5bc 38f5 503e 2b98 b3bd f199 48be
00000310: 98be 2ebd f48d 993e 7f01 83be cfa8 81bd
00000320: bd5e 61be c397 82bd b827 9abe 731f a1be
00000330: ddcc 3fbe 552a 0d3e cfed f3bd e068 ddbd
00000340: f90a 893d 729e 583d 2f45 5cbc 1526 45be
00000350: 34b0 033e 31d3 4e3e cd4a 31bd 0c51 88be
00000360: 6baf 7fbe 1cd4 b3be c22d e33d db85 243e
00000370: 88e1 a6be 7e36 683d 1227 883e 164b 803e
00000380: 3a23 973e f4d4 47be 0f1e 293e 9dd0 813e
00000390: 9b8b 4dbe c224 9abe eaa9 d03d 0a6b 51be
000003a0: 1a33 753e 8bb6 57be d621 8f3e 9061 833e
000003b0: 00a6 293e a685 393e 9e63 debc 1873 5abd
000003c0: 1821 7cbe b5e7 6d3e 0dd3 10bb 24a7 8a3d
000003d0: f94f e43d c690 083e 1b44 2a3e 30d0 793e
000003e0: 4049 53be f4c9 733d 09fd 6bbe d499 60be
000003f0: 6fe2 713e f124 243e 8503 1c3d 097d 76bd

bias f4 [10]
-0.12792131 -0.11460916 0.045725875 -0.076863416 0.052822653 -0.037576556 0.0073334477 -0.036049467
-0.0036163728 0.039164834
00000000: cefd 02be 35b8 eabd 0e4b 3b3d 916a 9dbd
00000010: 915c 583d e0e9 19bd 6b4d f03b 9ba8 13bd
00000020: ab00 6dbb 4e6b 203d
